{"backend": "tensorflow", "keras_version": "2.0.8", "config": [{"config": {"name": "lambda_1", "trainable": true, "function": ["\u00e3\u0001\u0000\u0000\u0000\u0000\u0000\u0000\u0000\u0001\u0000\u0000\u0000\u0002\u0000\u0000\u0000S\u0000\u0000\u0000s\f\u0000\u0000\u0000|\u0000\u0000d\u0001\u0000\u001bd\u0002\u0000\u0018S)\u0003N\u00e7\u0000\u0000\u0000\u0000\u0000\u00e0_@\u00e7\u0000\u0000\u0000\u0000\u0000\u0000\u00f0?\u00a9\u0000)\u0001\u00da\u0001xr\u0003\u0000\u0000\u0000r\u0003\u0000\u0000\u0000\u00fa\u0018behavioral-cloning-v5.py\u00da\b<lambda>\u00ed\u0000\u0000\u0000s\u0000\u0000\u0000\u0000", null, null], "output_shape_type": "raw", "batch_input_shape": [null, 66, 200, 3], "arguments": {}, "function_type": "lambda", "dtype": "float32", "output_shape": null}, "class_name": "Lambda"}, {"config": {"trainable": true, "kernel_constraint": null, "kernel_size": [5, 5], "activity_regularizer": null, "use_bias": true, "kernel_regularizer": {"config": {"l2": 0.0010000000474974513, "l1": 0.0}, "class_name": "L1L2"}, "filters": 24, "dilation_rate": [1, 1], "activation": "relu", "padding": "valid", "strides": [2, 2], "name": "conv2d_1", "bias_initializer": {"config": {}, "class_name": "Zeros"}, "bias_regularizer": null, "bias_constraint": null, "kernel_initializer": {"config": {"mode": "fan_avg", "seed": null, "distribution": "uniform", "scale": 1.0}, "class_name": "VarianceScaling"}, "data_format": "channels_last"}, "class_name": "Conv2D"}, {"config": {"trainable": true, "kernel_constraint": null, "kernel_size": [5, 5], "activity_regularizer": null, "use_bias": true, "kernel_regularizer": {"config": {"l2": 0.0010000000474974513, "l1": 0.0}, "class_name": "L1L2"}, "filters": 36, "dilation_rate": [1, 1], "activation": "relu", "padding": "valid", "strides": [2, 2], "name": "conv2d_2", "bias_initializer": {"config": {}, "class_name": "Zeros"}, "bias_regularizer": null, "bias_constraint": null, "kernel_initializer": {"config": {"mode": "fan_avg", "seed": null, "distribution": "uniform", "scale": 1.0}, "class_name": "VarianceScaling"}, "data_format": "channels_last"}, "class_name": "Conv2D"}, {"config": {"trainable": true, "kernel_constraint": null, "kernel_size": [5, 5], "activity_regularizer": null, "use_bias": true, "kernel_regularizer": {"config": {"l2": 0.0010000000474974513, "l1": 0.0}, "class_name": "L1L2"}, "filters": 48, "dilation_rate": [1, 1], "activation": "relu", "padding": "valid", "strides": [2, 2], "name": "conv2d_3", "bias_initializer": {"config": {}, "class_name": "Zeros"}, "bias_regularizer": null, "bias_constraint": null, "kernel_initializer": {"config": {"mode": "fan_avg", "seed": null, "distribution": "uniform", "scale": 1.0}, "class_name": "VarianceScaling"}, "data_format": "channels_last"}, "class_name": "Conv2D"}, {"config": {"trainable": true, "kernel_constraint": null, "kernel_size": [3, 3], "activity_regularizer": null, "use_bias": true, "kernel_regularizer": {"config": {"l2": 0.0010000000474974513, "l1": 0.0}, "class_name": "L1L2"}, "filters": 64, "dilation_rate": [1, 1], "activation": "relu", "padding": "valid", "strides": [1, 1], "name": "conv2d_4", "bias_initializer": {"config": {}, "class_name": "Zeros"}, "bias_regularizer": null, "bias_constraint": null, "kernel_initializer": {"config": {"mode": "fan_avg", "seed": null, "distribution": "uniform", "scale": 1.0}, "class_name": "VarianceScaling"}, "data_format": "channels_last"}, "class_name": "Conv2D"}, {"config": {"trainable": true, "kernel_constraint": null, "kernel_size": [3, 3], "activity_regularizer": null, "use_bias": true, "kernel_regularizer": {"config": {"l2": 0.0010000000474974513, "l1": 0.0}, "class_name": "L1L2"}, "filters": 64, "dilation_rate": [1, 1], "activation": "relu", "padding": "valid", "strides": [1, 1], "name": "conv2d_5", "bias_initializer": {"config": {}, "class_name": "Zeros"}, "bias_regularizer": null, "bias_constraint": null, "kernel_initializer": {"config": {"mode": "fan_avg", "seed": null, "distribution": "uniform", "scale": 1.0}, "class_name": "VarianceScaling"}, "data_format": "channels_last"}, "class_name": "Conv2D"}, {"config": {"name": "flatten_1", "trainable": true}, "class_name": "Flatten"}, {"config": {"trainable": true, "kernel_constraint": null, "activity_regularizer": null, "use_bias": true, "kernel_regularizer": {"config": {"l2": 0.0010000000474974513, "l1": 0.0}, "class_name": "L1L2"}, "bias_constraint": null, "activation": "relu", "units": 100, "name": "dense_1", "bias_initializer": {"config": {}, "class_name": "Zeros"}, "bias_regularizer": null, "kernel_initializer": {"config": {"mode": "fan_avg", "seed": null, "distribution": "uniform", "scale": 1.0}, "class_name": "VarianceScaling"}}, "class_name": "Dense"}, {"config": {"name": "dropout_1", "trainable": true, "rate": 0.5}, "class_name": "Dropout"}, {"config": {"trainable": true, "kernel_constraint": null, "activity_regularizer": null, "use_bias": true, "kernel_regularizer": {"config": {"l2": 0.0010000000474974513, "l1": 0.0}, "class_name": "L1L2"}, "bias_constraint": null, "activation": "relu", "units": 50, "name": "dense_2", "bias_initializer": {"config": {}, "class_name": "Zeros"}, "bias_regularizer": null, "kernel_initializer": {"config": {"mode": "fan_avg", "seed": null, "distribution": "uniform", "scale": 1.0}, "class_name": "VarianceScaling"}}, "class_name": "Dense"}, {"config": {"trainable": true, "kernel_constraint": null, "activity_regularizer": null, "use_bias": true, "kernel_regularizer": {"config": {"l2": 0.0010000000474974513, "l1": 0.0}, "class_name": "L1L2"}, "bias_constraint": null, "activation": "relu", "units": 10, "name": "dense_3", "bias_initializer": {"config": {}, "class_name": "Zeros"}, "bias_regularizer": null, "kernel_initializer": {"config": {"mode": "fan_avg", "seed": null, "distribution": "uniform", "scale": 1.0}, "class_name": "VarianceScaling"}}, "class_name": "Dense"}, {"config": {"trainable": true, "kernel_constraint": null, "activity_regularizer": null, "use_bias": true, "kernel_regularizer": null, "bias_constraint": null, "activation": "linear", "units": 1, "name": "dense_4", "bias_initializer": {"config": {}, "class_name": "Zeros"}, "bias_regularizer": null, "kernel_initializer": {"config": {"mode": "fan_avg", "seed": null, "distribution": "uniform", "scale": 1.0}, "class_name": "VarianceScaling"}}, "class_name": "Dense"}], "class_name": "Sequential"}